data/checkpoints/checkpoint.pt (torch, 104958 bytes, 16 tensors)

embeddings.0.weight f4 [2473, 6]
0.051479477 -0.18314555 0.3915324 1.6100855 -1.7050928 -0.092996046 -0.10496659 -0.6549032
0.5781954 0.078086905 -0.099967904 0.5627925 0.22651 -0.72776043 0.15963382 0.5522625
-0.56320655 -0.09917594 -1.1075046 -1.8430378 -1.067792 -0.24995223 -0.93668306 -1.3294716
-1.3148063 -0.20513216 -0.93206376 -0.058406126 0.21625948 0.667891 0.8824075 -0.31746867
-1.1960276 -0.86070466 0.8058731 1.0394636 -1.0525103 -0.0071338504 1.9421965 0.73277897
0.8565212 -0.29328105 -0.54917574 0.3707976 -0.8256344 -0.7339518 0.53007513 -0.45865083
-1.2814616 -1.3537596 -0.44980472 -0.20630482 0.54466474 -1.100326 -0.052137367 -1.1414807
-0.4487566 0.4058873 0.3373409 0.80475223 1.3699181 0.3669157 -2.3677046 -0.37029672
0.032576755 -0.8793636 1.7548991 0.8442782 -0.40658113 -1.9394104 -0.047225345 -0.8481971
0.28315255 -1.3182517 1.4154356 -1.3077208 0.010516113 1.1059731 1.558733 -0.8075487
-0.6237554 1.33976 0.8824579 -0.44414946 -1.163634 -1.7337201 1.7656466 0.024233373
-0.44668788 0.26580465 -0.39370668 1.4112577 0.97100693 0.30952188 0.038768094 -0.4476475
0.69669914 0.4125855 -1.3961511 0.23823828 1.722218 -1.0857365 -2.1511614 -2.11916
-0.07765848 0.71984196 0.20988083 -0.14827229 -0.9653314 -1.1466343 -1.6068873 0.6588908
0.46836066 -0.90482116 -0.69351673 2.2708955 1.4002827 -1.6347685 0.44373983 0.21086808
0.42595634 0.5487624 -1.3551068 -0.19837038 -1.4720495 -0.07652339 0.29437238 -0.6624109
-0.44035482 0.4854504 -1.897843 1.255953 -0.21904257 -1.1238515 0.84451526 0.43452635
-0.12258483 0.5664907 1.2034245 3.3371086 -0.74775594 1.1655837 -0.6161301 0.66721207
0.7722592 -1.1902854 0.53309804 -0.54434884 -0.64161843 0.9526002 -1.0330298 0.59033364
0.18047796 -1.6131004 -0.42360276 0.7430758 -0.18580139 0.50021875 -1.3213357 -1.1721989
0.6849219 -0.69142383 0.19003972 -0.030977126 -0.14584433 1.1015718 -0.9087314 0.07118572
-0.66377497 1.0953267 -0.47357294 -0.043205805 0.45090404 -0.280915 1.2767142 -0.6258797
-2.0941157 -0.13733537 0.6224471 1.4407374 1.6485273 0.82509243 1.5959337 0.92643327
0.112738214 0.49162805 -0.2803819 0.761576 0.026289925 0.74674684 1.2025722 -0.20408712
1.2221259 0.01559866 0.9149453 2.3705177 0.5267266 0.7201629 -1.0976514 -2.544297
1.9384643 -0.20177586 0.38352033 -1.2969658 -0.60024405 -0.3775608 -1.0630702 -0.22363083
-0.7087515 -1.8698134 1.3763382 0.031892337 0.6821615 1.4452317 0.013561207 1.7899863
1.281964 0.7949116 0.224793 -0.300584 0.51448274 -0.30919713 0.7746247 0.64387864
-0.65750206 1.4209523 -0.23362346 0.8195164 0.7070541 -2.2542999 1.1411473 -1.4893608
-1.1446313 -0.8383557 -2.1765342 0.783344 0.9614319 -1.0434657 0.65464383 -0.92126197
-0.24476975 1.260863 -0.78606987 0.16898522 -1.2396431 0.00089214824 -0.5685274 0.19933717
0.9310192 2.0263631 0.13850398 -1.892032 0.13093667 -1.4312041 -1.2249061 0.037025753
00000000: 25dc 523d 828a 3bbe ef76 c83e 4817 ce3f
00000010: 7b40 dabf b674 bebd b9f8 d6bd bca7 27bf
00000020: 9d04 143f 07ec 9f3d f9bb ccbd 2b13 103f
00000030: 3df2 673e 824e 3abf 0c77 233e 1361 0d3f
00000040: 4e2e 10bf c11c cbbd b6c2 8dbf aae8 ebbf
00000050: 69ad 88bf 7af3 7fbe 76ca 6fbf 202c aabf
00000060: 934b a8bf 2a0e 52be bb9b 6ebf 433b 6fbd
00000070: 2073 5d3e e8fa 2a3f 75e5 613f 418b a2be
00000080: 6f17 99bf 2457 5cbf b34d 4e3f 250d 853f
00000090: a8b8 86bf 13c3 e9bb e599 f83f 6797 3b3f
000000a0: f944 5b3f ef28 96be c896 0cbf 2fd9 bd3e
000000b0: c75c 53bf 44e4 3bbf 01b3 073f 48d4 eabe
000000c0: ef06 a4bf ff47 adbf ce4c e6be 9241 53be
000000d0: 266f 0b3f 7bd7 8cbf fe8d 55bd 0a1c 92bf
000000e0: 6dc3 e5be 76d0 cf3e f2b7 ac3e 3e04 4e3f
000000f0: 7a59 af3f 60dc bb3e 7988 17c0 8897 bdbe
00000100: 346f 053d f91d 61bf 89a0 e03f 9e22 583f
00000110: 672b d0be 9a3e f8bf 5d6f 41bd 7223 59bf
00000120: 5ff9 903e 79bc a8bf fe2c b53f 6563 a7bf
00000130: c64b 2c3c 8790 8d3f 9084 c73f 83bb 4ebf
00000140: 6fae 1fbf 417d ab3f c3e8 613f 8f67 e3be
00000150: f5f1 94bf 8aea ddbf b500 e23f 1185 c63c
00000160: 46b4 e4be 8c17 883e ec93 c9be 18a4 b43f
00000170: e993 783f a779 9e3e 4bcb 1e3d 0e32 e5be
00000180: e05a 323f 683e d33e 14b5 b2bf bcf4 733e
00000190: a471 dc3f 6af9 8abf a1ac 09c0 51a0 07c0
000001a0: 690b 9fbd 9047 383f 00eb 563e b1d4 17be
000001b0: f51f 77bf eac4 92bf 7cae cdbf 11ad 283f
000001c0: f8cc ef3e 5ca2 67bf 508a 31bf 5a56 1140
000001d0: 773c b33f 1840 d1bf de31 e33e cded 573e
000001e0: f316 da3e b17b 0c3f 2474 adbf 9b21 4bbe
000001f0: 1e6c bcbf 4cb8 9cbd fab7 963e c393 29bf
00000200: 3076 e1be f48c f83e 85ec f2bf 11c3 a03f
00000210: b24c 60be 5eda 8fbf 2732 583f 3d7a de3e
00000220: c10d fbbd 8905 113f d009 9a3f 3093 5540
00000230: ef6c 3fbf d931 953f b4ba 1dbf 69ce 2a3f
00000240: c7b2 453f 465b 98bf 1d79 083f 725a 0bbf
00000250: 1b41 24bf 9bdd 733f 523a 84bf 1b20 173f
00000260: 37cf 383e 137a cebf 76e2 d8be 373a 3e3f
00000270: b842 3ebe 560e 003f 8721 a9bf 9d0a 96bf
00000280: 0b57 2f3f 2701 31bf c699 423e bec3 fdbc
00000290: 3758 15be 4e00 8d3f 9fa2 68bf d2c9 913d
000002a0: 28ed 29bf aa33 8c3f 2778 f2be 92f8 30bd
000002b0: e5dc e63e 17d4 8fbe 5f6b a33f a739 20bf
000002c0: fe05 06c0 a5a1 0cbe b158 1f3f 156a b83f
000002d0: f102 d33f 4239 533f 8e47 cc3f bb2a 6d3f
000002e0: 4be3 e63d acb6 fb3e 378e 8fbe a5f6 423f
000002f0: f85d d73c cd2a 3f3f e3ed 993f 37fc 50be
00000300: 9f6e 9c3f 8691 7f3c db39 6a3f 90b6 1740
00000310: 8ed7 063f 995c 383f d77f 8cbf c3d5 22c0
00000320: 991f f83f 559e 4ebe c75c c43e fa02 a6bf
00000330: 98a9 19bf a64f c1be af12 88bf 7bff 64be
00000340: bd70 35bf 0c56 efbf da2b b03f 8aa1 023d
00000350: 23a2 2e3f 5afd b83f d32f 5e3c 451e e53f
00000360: 6517 a43f 547f 4b3f 2330 663e 25e6 99be
00000370: 24b5 033f 164f 9ebe ce4d 463f 3bd5 243f
00000380: 0e52 28bf c4e1 b53f fd3a 6fbe d4cb 513f
00000390: 7f01 353f 7346 10c0 1d11 923f 60a3 bebf
000003a0: 4783 92bf 7b9e 56bf 564c 0bc0 3b89 483f
000003b0: 6720 763f 4990 85bf bd96 273f d3d7 6bbf
000003c0: eca4 7abe f563 a13f e03b 49bf 760a 2d3e
000003d0: a0ac 9ebf 0edf 693a 038b 11bf 0b1f 4c3e
000003e0: 4657 6e3f efaf 0140 fdd3 0d3e 1b2e f2bf
000003f0: 4314 063e b231 b7bf b9c9 9cbf 51a8 173d

embeddings.1.weight f4 [4, 2]
-1.5692575 0.97260404 -0.3477036 1.3186682 -0.09768605 2.4094365 -0.57700384 0.5759803
00000000: 6edd c8bf 94fc 783f 3506 b2be 1fca a83f
00000010: a00f c8bd 3534 1a40 86b6 13bf 7273 133f

embeddings.2.weight f4 [4, 2]
0.7948194 1.0630331 0.57069397 0.07847474 -1.2569152 0.8178035 2.3944776 -1.5978711
00000000: 4979 4b3f 7811 883f 0019 123f 5db7 a03d
00000010: 99e2 a0bf 925b 513f 1f3f 1940 0a87 ccbf

embeddings.3.weight f4 [19, 4]
0.602782 -1.2275451 1.2596861 0.62838566 0.11726505 -0.36778218 -1.4268289 -0.39132574
1.4861286 0.6128395 0.08169595 1.0112526 -0.14081255 -0.9607417 -0.15328547 2.2380538
-0.1353276 2.1560051 2.0765233 -0.32990313 1.0776626 -0.78110564 -1.6048799 -1.204713
2.085059 0.19243616 -0.10536151 1.0109618 1.3979084 -0.3157392 1.0081052 2.3263874
-0.54637563 -1.0310663 -0.85560673 -0.28308135 -0.34786254 0.7899395 -0.03681796 -1.4392956
-0.39970002 1.6553693 -0.5905898 -0.10820029 0.5595456 -0.62002385 0.54927874 0.086918674
-0.31843594 0.75341153 0.028942764 1.5841317 -1.3198204 -0.65971124 2.5239866 -1.5111912
-0.012920289 -0.6175433 0.8243623 0.22989854 -0.5071856 0.39569554 0.3718219 -0.27142116
-0.36507553 1.029283 -0.029311214 -1.4674329 0.7443982 -0.24332489 -1.4507453 -2.38704
0.81257635 -0.8963284 -0.0027156142 -0.20366718
00000000: ec4f 1a3f 3320 9dbf 653d a13f e2dd 203f
00000010: a928 f03d f24d bcbe 54a2 b6bf d95b c8be
00000020: 7639 be3f 0de3 1c3f 3550 a73d ba70 813f
00000030: 2a31 10be 2bf3 75bf def6 1cbe 463c 0f40
00000040: 5293 0abe fdfb 0940 c2e5 0440 10e9 a8be
00000050: d9f0 893f 8af6 47bf b46c cdbf 0934 9abf
00000060: 9b71 0540 fc0d 453e c6c7 d7bd 3267 813f
00000070: aaee b23f 92a8 a1be 9709 813f 88e3 1440
00000080: 46df 0bbf fbf9 83bf 0b09 5bbf 0af0 90be
00000090: 0a1b b2be 7a39 4a3f 6ece 16bd d73a b8bf
000000a0: 7ba5 ccbe 24e3 d33f e530 17bf 1d98 ddbd
000000b0: 613e 0f3f e2b9 1ebf 889d 0c3f 6b02 b23d
000000c0: 090a a3be 94df 403f 6019 ed3c d4c4 ca3f
000000d0: e0ef a8bf d6e2 28bf ff88 2140 b76e c1bf
000000e0: 9faf 53bc 5117 1ebf 6809 533f 866a 6b3e
000000f0: ead6 01bf 9b98 ca3e 715f be3e b7f7 8abe
00000100: 2eeb babe 8cbf 833f 121e f0bc d7d4 bbbf
00000110: e190 3e3f 292a 79be 06b2 b9bf 43c5 18c0
00000120: 0105 503f c775 65bf 72f8 31bb 218e 50be

embeddings.4.weight f4 [3, 2]
0.37853634 0.7304978 -1.5250281 -1.4719583 0.27651206 -0.10173134
00000000: 84cf c13e e701 3b3f 1f34 c3bf 2169 bcbf
00000010: fd92 8d3e 8558 d0bd

embeddings.5.weight f4 [2, 1]
0.37038058 -0.75610936
00000000: 86a2 bd3e 6290 41bf

embeddings.6.weight f4 [2, 1]
-0.31454796 -0.86922234
00000000: 6e0c a1be 5b85 5ebf

layer1.0.weight f4 [160, 28]
0.0033439482 -0.082073815 -0.022034258 -0.07654645 0.44315472 0.35019138 0.069913276 0.292572
-0.12397549 0.013250865 -0.020157702 -0.13185142 0.039153434 -0.02723917 -0.18271609 0.46416113
0.054160737 0.005606421 -0.21707737 0.25417358 0.23700252 0.6391545 -0.17735967 0.014106664
0.25199395 -0.14123324 0.07754239 0.27936313 0.12917335 0.01606799 0.2447368 0.30774364
0.31822473 -0.061151378 -0.0762559 0.19936813 0.21071851 0.40806156 -0.18104635 0.15906395
0.25267988 -0.2376866 0.09006552 0.5283202 0.09571984 0.38194743 0.0048180413 -0.24008825
0.23379661 0.44876984 -0.11813866 -0.22308208 0.106204085 -0.022313647 -0.053716592 -0.09472148
-0.03264087 0.34551194 0.20067789 0.079349086 0.04182112 -0.34757236 0.13315941 -0.56036943
0.22647691 0.23169774 -0.31750786 -0.112535894 -0.43555528 -0.25633916 0.11000772 -0.22005953
-0.052508697 -0.031567395 0.13056418 -0.043016903 -0.10933739 -0.11902979 -0.36147177 0.0835615
0.06378618 0.03712751 0.21582331 -0.26793194 -0.2360202 0.12777969 0.0020513807 0.077663794
0.1833659 -0.43515792 0.056128252 0.0042669955 -0.044774294 -0.22166923 0.19038656 -0.23514889
0.27537662 0.12935321 0.11547949 -0.19126077 -0.22611552 -0.16974008 -0.17832877 0.0798031
0.22352713 -0.56489223 0.009158797 -0.043868452 0.5488117 -0.050879728 0.24757409 -0.21986908
0.28204829 -0.34653607 0.16155061 -0.21147399 0.2853633 -0.06678685 0.2337468 -0.34675366
-0.079333976 0.013440292 -0.27770865 0.70907104 0.043601558 0.108169004 -0.32284337 -0.03346103
-0.064450875 0.033935968 -0.08992745 -0.4772298 0.33319527 0.0145597225 -0.16155726 0.08650843
0.08347669 0.1721957 -0.1721752 0.129279 0.32762587 -0.11194326 0.0915415 0.15470116
0.35883194 -0.27284122 0.057291303 0.3280489 -0.66181844 -0.133705 -0.034123663 -0.11851154
0.13356216 -0.19698864 0.14936392 0.23961785 -0.015404089 -0.18711318 0.17670168 0.074785076
-0.34151182 0.13591966 -0.009329361 0.05622337 0.049290992 0.40637368 0.14749114 0.19683628
-0.06288725 -0.05406395 -0.31125888 0.08600186 -0.060922652 0.016822003 0.19781928 0.16950741
0.45630425 0.27926308 0.23456775 -0.37860665 0.46748275 0.4860473 -0.4094857 -0.031831317
0.39468715 0.04799569 0.30204746 -0.14407656 -0.19363973 -0.4588072 -0.268467 -0.26445922
-0.10021037 -0.367733 -0.2744656 0.1701794 0.4824308 -0.36020315 0.5431482 0.46336916
-0.07432328 -0.44057372 0.4861482 -0.067082904 0.022842802 -0.45398918 0.25071415 -0.1524028
0.07106938 0.09936896 -0.112396285 0.21028674 -0.35302544 0.049807496 0.22866778 -0.60676146
0.50821906 -0.5382113 -0.3710893 -0.06728513 -0.46208647 0.21649407 0.012742392 -0.10527029
0.20358022 -0.1525926 -0.05031559 0.3479031 0.2513768 0.3544062 -0.28016376 -0.10130267
0.33490998 0.27158722 -0.10138969 -0.59053016 -0.15492629 -0.16217409 0.10874653 -0.31627643
-0.0149348015 0.14993483 -0.17590067 0.16401938 0.16450538 -0.123096265 0.18713762 0.19589089
-0.2606977 0.043390557 0.11382747 0.15210855 0.016320035 0.06219985 0.22727011 0.13590084
00000000: 2426 5b3b 5116 a8bd 3081 b4bc 63c4 9cbd
00000010: 2de5 e23e 494c b33e b12e 8f3d ffcb 953e
00000020: dde6 fdbd 281a 593c c421 a5bc 0f04 07be
00000030: 5a5f 203d ae24 dfbc ed19 3bbe 87a6 ed3e
00000040: a6d7 5d3d 11b6 b73b 8849 5ebe 0a23 823e
00000050: cab0 723e a19f 233f c69d 35be a31f 673c
00000060: 5a05 813e 729f 10be 8bce 9e3d af08 8f3e
00000070: 0546 043e 04a1 833c 499c 7a3e 9390 9d3e
00000080: 5aee a23e de79 7abd 0e2c 9cbd 2927 4c3e
00000090: 98c6 573e 72ed d03e 3764 39be a9e1 223e
000000a0: 425f 813e 1e64 73be 4574 b83d fe3f 073f
000000b0: c308 c43d 9d8e c33e a9e0 9d3b b2d9 75be
000000c0: 6168 6f3e 29c5 e53e aff2 f1bd a16f 64be
000000d0: 8781 d93d 1ccb b6bc ee05 5cbd 56fd c1bd
000000e0: 6fb2 05bd f1e6 b03e 817e 4d3e c681 a23d
000000f0: 9f4c 2b3d 01f5 b1be f15a 083e 5f74 0fbf
00000100: 90e9 673e 2c42 6d3e 6490 a2be 3879 e6bd
00000110: 1a01 dfbe e33e 83be ba4b e13d 4957 61be
00000120: 5c13 57bd d04c 01bd 9eb2 053e 7e32 30bd
00000130: 48ec dfbd e4c5 f3bd d412 b9be 4b22 ab3d
00000140: 54a2 823d 0413 183d c900 5d3e 602e 89be
00000150: 48af 71be aed8 023e 7570 063b 320e 9f3d
00000160: 45c4 3b3e 05cd debe bde6 653d 27d2 8b3b
00000170: 4065 37bd 42fd 62be b2f4 423e dfca 70be
00000180: 2afe 8c3e 2b75 043e 8380 ec3d ddd9 43be
00000190: d48a 67be 58d0 2dbe d19b 36be cf6f a33d
000001a0: 4ce4 643e c79c 10bf c70e 163c 68af 33bd
000001b0: ec7e 0c3f 4367 50bd 1084 7d3e 5c25 61be
000001c0: a268 903e 2d6d b1be 866d 253e a38c 58be
000001d0: 231b 923e 8bc7 88bd 525b 6f3e b289 b1be
000001e0: da79 a2bd ac34 5c3c d42f 8ebe ae85 353f
000001f0: 8c97 323d b687 dd3d ba4b a5be 6f0e 09bd
00000200: d2fe 83bd 7100 0b3d e22b b8bd 7757 f4be
00000210: 9298 aa3e e78b 6e3c 446f 25be 552b b13d
00000220: d4f5 aa3d 1254 303e b24e 30be b761 043e
00000230: 94be a73e 8242 e5bd 1c7a bb3d fb69 1e3e
00000240: d2b8 b73e d8b1 8bbe 49aa 6a3d 07f6 a73e
00000250: ef6c 29bf f7e9 08be 41c5 0bbd 2eb6 f2bd
00000260: 85c4 083e 64b7 49be dbf2 183e 625e 753e
00000270: 6f61 7cbc 999a 3fbe 49f1 343e eb28 993d
00000280: a3da aebe 862e 0b3e 2dda 18bc 7a4a 663d
00000290: 5ae5 493d 3610 d03e eb07 173e 738f 493e
000002a0: 08cb 80bd 2972 5dbd 535d 9fbe be21 b03d
000002b0: 088a 79bd 4cce 893c 2391 4a3e 5a93 2d3e
000002c0: b6a0 e93e 92fb 8e3e 8732 703e bbd8 c1be
000002d0: e659 ef3e 31db f83e 1ca8 d1be 8e61 02bd
000002e0: 6f14 ca3e 2197 443d f7a5 9a3e ce88 13be
000002f0: 7e49 46be c7e8 eabe 8274 89be 3367 87be
00000300: 183b cdbd 8047 bcbe c186 8cbe 8243 2e3e
00000310: 2b01 f73e 8c6c b8be c30b 0b3f b93e ed3e
00000320: ce36 98bd e192 e1be 6be8 f83e c362 89bd
00000330: d420 bb3c 4571 e8be 9b5d 803e 7b0f 1cbe
00000340: d38c 913d f481 cb3d 0630 e6bd 6855 573e
00000350: c0bf b4be f202 4c3d e327 6a3e b854 1bbf
00000360: a51a 023f 37c8 09bf 6bff bdbe c9cc 89bd
00000370: 9996 ecbe 9fb0 5d3e 77c5 503c f397 d7bd
00000380: 5577 503e 3c41 1cbe b817 4ebd 5b20 b23e
00000390: 76b4 803e bb74 b53e a071 8fbe c677 cfbd
000003a0: 5279 ab3e 7b0d 8b3e 66a5 cfbd fc2c 17bf
000003b0: ffa4 1ebe f710 26be 80b6 de3d fcee a1be
000003c0: 19b1 74bc 8488 193e 4e1f 34be b2f4 273e
000003d0: 1974 283e e519 fcbd 01a1 3f3e 9f97 483e
000003e0: 2b7a 85be 4cba 313d 601e e93d 58c2 1b3e
000003f0: 98b1 853c 45c5 7e3d 7fb9 683e 9729 0b3e

layer1.0.bias f4 [160]
-0.01430368 0.017912889 -0.011974024 -0.012208363 0.019724641 0.0057764305 -0.025878813 0.02473601
-0.02116998 0.026679974 0.018686978 0.026982324 -0.014165255 -0.024896394 0.011459596 -0.01735832
-0.019524002 0.0053621074 -0.016803866 0.033312984 -0.011262928 -0.013396453 -0.012453702 -0.025273485
-0.010742622 0.053855516 -0.016191399 -0.0045982604 -0.019893387 -0.027079053 0.020169128 -0.021463484
-0.018681774 0.017667657 0.021128312 -0.017316774 0.018538471 -0.027659569 0.023890061 -0.013911758
-0.02675457 -0.008534496 -0.010733919 -0.024773495 0.002389964 0.020129606 0.025161872 -0.021177864
-0.02986075 -0.022790631 0.018593615 -0.0007820514 -0.020572482 0.018321862 -0.016895754 0.023897344
0.023449274 0.010344323 0.026213784 -0.021176456 -0.00027395826 -0.008357092 -0.022934588 -0.014296514
0.0013486218 0.020917961 0.020895762 0.013688595 0.0109314695 0.025645416 -0.008482672 -0.020531125
-0.014124526 -0.020189414 -0.014053088 -0.021384822 -0.02418931 0.041816853 -0.02076318 -0.019821126
-0.030522222 -0.0006639577 0.021554373 -0.023158649 -0.021643471 0.018540107 -0.0066012763 0.010752408
-0.004486148 -0.017256444 -0.018873254 0.020208059 -0.010924137 -0.016316053 0.030922905 -0.016546775
0.044737693 0.0045542642 0.025225114 0.028657822 0.007494427 -0.023118509 0.011436564 -0.01754261
0.02736935 0.03138167 0.014340002 -0.023181096 0.015755296 0.018469894 0.0015921517 0.018581795
-0.021702714 -0.025944117 -0.024300119 -0.019946009 -0.023593387 0.026170036 0.012190551 -0.02105329
-0.023085043 0.018398669 -0.018934336 -0.02576986 0.029156098 0.004396964 -0.02071089 -0.014551992
-0.0228902 0.029129757 -0.020201473 -0.01843091 0.01729783 -0.012349926 0.014396625 -0.0147337895
0.019629268 -0.013444239 -0.028290862 0.016146202 -0.018324513 -0.022844566 0.02142669 -0.029210087
-0.017952358 0.00020048094 0.024929127 0.020492764 0.0017908349 -0.020199569 0.01256567 -0.027150318
-0.022430807 -0.02653781 -0.02060269 0.00036704808 -0.0123700155 0.015130229 -0.017382566 0.02943327
00000000: fb59 6abc 0dbe 923c b22e 44bc 9605 48bc
00000010: 9295 a13c 3648 bd3b ceff d3bc 2ca3 ca3c
00000020: aa6c adbc f68f da3c 6f15 993c 090a dd3c
00000030: 6315 68bc 86f3 cbbc 08c1 3b3c 0933 8ebc
00000040: cdf0 9fbc 9eb4 af3b 43a8 89bc 3273 083d
00000050: 2588 38bc cc7c 5bbc 9d0a 4cbc 570a cfbc
00000060: d301 30bc 9a97 5c3d d3a3 84bc 01ad 96bb
00000070: 75f7 a2bc e4d4 ddbc ba39 a53c 30d4 afbc
00000080: 850a 99bc c3bb 903c 4815 ad3c e8db 8dbc
00000090: fedd 973c 5296 e2bc 17b5 c33c 24ee 63bc
000000a0: 662c dbbc 45d4 0bbc 52dd 2fbc c9f1 cabc
000000b0: f1a0 1c3b d8e6 a43c 4520 ce3c 337d adbc
000000c0: 889e f4bc 6bb3 babc a351 983c 9502 4dba
000000d0: 9f87 a8bc bb17 963c f768 8abc 5dc4 c33c
000000e0: b118 c03c 3c7b 293c 4abe d63c 3f7a adbc
000000f0: 0ea2 8fb9 2fec 08bc 51e1 bbbc ed3b 6abc
00000100: 3dc4 b03a 255c ab3c 972d ab3c 2146 603c
00000110: e819 333c 5616 d23c e8fa 0abc e430 a8bc
00000120: 8e6a 67bc 4564 a5bc ec3e 66bc 392f afbc
00000130: a928 c6bc 2648 2b3d 8b17 aabc ea5f a2bc
00000140: bd09 fabc 720d 2eba cc92 b03c 35b7 bdbc
00000150: a64d b1bc 6ce1 973c 854f d8bb de2a 303c
00000160: 8900 93bb 635d 8dbc 159c 9abc 5f8b a53c
00000170: 27fb 32bc 3ea9 85bc 0852 fd3c 1a8d 87bc
00000180: df3e 373d f03b 953b e6a4 ce3c cfc3 ea3c
00000190: cf93 f53b 0763 bdbc 6d60 3b3c 85b5 8fbc
000001a0: b035 e03c 118a 003d 54f2 6a3c 48e6 bdbc
000001b0: 4011 813c 2d4e 973c bfaf d03a d938 983c
000001c0: e4c9 b1bc c288 d4bc 0b11 c7bc d065 a3bc
000001d0: eb46 c1bc 8b62 d63c e0ba 473c f377 acbc
000001e0: d81c bdbc ceb8 963c 2e1c 9bbc 501b d3bc
000001f0: c5d8 ee3c 6814 903b e2a9 a9bc 7a6b 6ebc
00000200: 3b84 bbbc 87a1 ee3c 8f7d a5bc 6bfc 96bc
00000210: 2eb4 8d3c 5857 4abc d2df 6b3c fe65 71bc
00000220: 8fcd a03c 3a45 5cbc 3dc2 e7bc 0a45 843c
00000230: 4a1d 96bc 8724 bbbc 0787 af3c fe49 efbc
00000240: d310 93bc 3138 5239 2b38 cc3c 71e0 a73c
00000250: 73ba ea3a 9179 a5bc 3de0 4d3c 586a debc
00000260: d0c0 b7bc d265 d9bc f9c6 a8bc 5c70 c039
00000270: 9bab 4abc c8e4 773c e265 8ebc 0b1e f13c

layer2.0.weight f4 [34, 160]
-0.010087669 0.09186162 0.036856733 0.08594139 0.025321461 0.0637911 -0.06398111 0.11829817
0.007045989 0.16076598 0.02634394 0.0025944249 -0.0006133927 -0.041857503 0.003243397 -0.090416506
0.17772958 0.100678496 -0.08278261 0.21066387 -0.080661036 0.0021712186 0.15134542 -0.017628774
-0.14973152 0.1438272 0.070174955 0.24524231 -0.038104247 0.18924129 0.26996294 0.1267255
-0.15458483 0.17152019 0.07909366 -0.08754588 0.13252777 0.015032825 -0.18171062 -0.03639851
-0.030308265 -0.06684571 -0.13885427 -0.054396775 -0.021702658 -0.15068194 0.011178331 -0.11589038
0.16490607 -0.2309467 -0.14668845 -0.047163285 -0.06359435 0.19616953 0.038760692 0.019506173
0.27954498 -0.08032452 -0.14669555 0.082836166 0.114596 -0.046028003 0.06839906 0.12129311
0.19633658 0.17468189 -0.03686695 0.04622837 0.03619769 -0.099705294 0.1361168 -0.16367579
-0.031866472 -0.004011976 -0.09112753 -0.09172953 -0.030630315 -0.0702984 0.011230787 0.05782036
-0.1004394 0.18078189 -0.04281239 -0.004010973 0.1254126 0.0317751 -0.043188453 -0.0004413523
0.14287685 0.13684523 0.0068248543 0.17613488 -0.024235398 -0.011045365 -0.18586095 -0.050640494
0.10079998 -0.123199046 0.09608995 -0.03407484 0.12009754 0.031874195 -0.003176863 0.36049378
0.055496056 0.16411227 0.03613296 -0.1759658 -0.013899645 0.14162357 -0.10295405 0.11586452
0.026223443 -0.06836951 -0.015948594 0.1648873 -0.08024682 0.039762717 0.23773284 -0.15919359
0.004411181 0.22509702 0.071013905 0.02228279 0.11542936 0.03400762 0.13160196 0.0106802005
-0.028952366 -0.121304974 -0.0285323 -0.08125498 0.07276396 0.080851026 -0.07457429 -0.16567557
-0.101662 0.045940775 0.23666658 0.0708597 -0.1531486 -0.00815227 0.029307757 -0.036572658
0.11113592 -0.04650883 0.012333281 0.023290643 0.06666234 0.1514038 0.1673306 0.08868587
0.16037181 0.053932305 0.026684452 0.0634948 -0.09906308 0.08092481 -0.1709781 -0.104102045
0.022891168 0.026478948 0.12799096 -0.122748986 0.09063753 -0.26992798 -0.15258352 -0.094559446
-0.12358421 0.06629246 0.0004353574 0.049078625 -0.058512278 -0.108486645 0.115227394 0.11326179
0.11570845 -0.1092592 -0.013683977 0.0794792 0.12641723 -0.13538127 -0.19403934 -0.21547842
0.032572757 0.21914844 -0.07575808 -0.17121415 -0.108736366 -0.030329566 0.045038108 -0.036946584
0.03803377 0.0592139 -0.0025745884 0.042030986 0.018870458 0.020355482 -0.028437553 0.10654979
0.06052401 0.15565486 0.02608566 -0.07141277 0.11429371 0.13786696 0.06675177 0.09419912
0.026037 -0.024046058 -0.11550622 -0.0039764605 -0.082747735 -0.0745542 -0.03942649 0.11848321
0.16274902 0.14989997 -0.074574366 0.14844237 0.071103975 -0.07712687 0.04306034 0.023845999
0.14427887 -0.015543585 0.01271518 -0.0695595 -0.017403139 0.072523355 0.15862095 0.17487547
0.15916447 -0.039584626 -0.022854097 -0.07065123 0.035013165 0.07966966 0.23333795 0.13669586
0.039540917 0.06949687 -0.044498328 0.039432976 0.03795551 0.19382006 -0.043443196 0.0062680217
-0.07024102 -0.07284952 0.012804861 -0.033176336 0.10763904 0.08560199 0.045371003 -0.0744562
00000000: c046 25bc f221 bc3d 16f7 163d 0a02 b03d
00000010: f46e cf3c e9a4 823d 8708 83bd 5046 f23d
00000020: 0ae2 e63b d69f 243e 3fcf d73c 3a07 2a3b
00000030: 16cc 20ba c672 2bbd 2c8f 543b 4a2c b9bd
00000040: befe 353e 8730 ce3d ee89 a9bd 45b8 573e
00000050: 9d31 a5bd 014b 0e3b 4bfa 1a3e 386a 90bc
00000060: 3853 19be 7047 133e e3b7 8f3d cd20 7b3e
00000070: 3313 1cbd 78c8 413e 9538 8a3e 54c4 013e
00000080: 7c4b 1ebe fda2 2f3e dbfb a13d 414b b3bd
00000090: 5cb5 073e 3d4c 763c 5912 3abe 9b16 15bd
000000a0: 0a49 f8bc 67e6 88bd d02f 0ebe 27cf 5ebd
000000b0: c6c9 b1bc 5e4c 1abe 5225 373c f057 edbd
000000c0: 23dd 283e 4b7d 6cbe 7f35 16be 4a2e 41bd
000000d0: c13d 82bd aae0 483e 88c3 1e3d 69cb 9f3c
000000e0: 8520 8f3e 2f81 a4bd 5c37 16be 02a6 a93d
000000f0: 4fb1 ea3d dc87 3cbd ce14 8c3d 8668 f83d
00000100: 750c 493e cfdf 323e cd01 17bd f659 3d3d
00000110: 0744 143d 4a32 ccbd 3462 0b3e a09a 27be
00000120: 6b86 02bd e576 83bb 12a1 babd b1dc bbbd
00000130: 6dec fabc 9cf8 8fbd 5601 383c 0bd5 6c3d
00000140: 2cb3 cdbd e31e 393e 0b5c 2fbd 7b6e 83bb
00000150: 296c 003e 9b26 023d 60e6 30bd 4e65 e7b9
00000160: 4f4e 123e 2821 0c3e 07a3 df3b b45c 343e
00000170: 5089 c6bc 9ef7 34bc 5552 3ebe 686c 4fbd
00000180: 3870 ce3d c84f fcbd cfca c43d 0f92 0bbd
00000190: b3f5 f53d 848e 023d eb32 50bb a492 b83e
000001a0: d54f 633d 0c0d 283e 2800 143d 6130 34be
000001b0: 56bb 63bc c505 113e 93d9 d2bd 614a ed3d
000001c0: 8cd2 d63c 5005 8cbd a0a6 82bc 37d8 283e
000001d0: 7258 a4bd 3bde 223d 3d70 733e a503 23be
000001e0: ab8b 903b d57f 663e bd6f 913d 668a b63c
000001f0: 3a66 ec3d 934b 0b3d aac2 063e 02fc 2e3c
00000200: 832d edbc be6e f8bd 92bc e9bc 0369 a6bd
00000210: 4505 953d 3995 a53d 68ba 98bd dba6 29be
00000220: 2b34 d0bd 652c 3c3d b958 723e e41e 913d
00000230: fdd2 1cbe 1991 05bc d216 f03c 36cd 15bd
00000240: 3b9b e33d 0b80 3ebd 8811 4a3c 05cc be3c
00000250: 4486 883d 9909 1b3e b658 2b3e f0a0 b53d
00000260: 8238 243e 1fe8 5c3d 5a99 da3c 9009 823d
00000270: 96e1 cabd e8bb a53d e214 2fbe 7433 d5bd
00000280: 4286 bb3c 61ea d83c 1010 033e d263 fbbd
00000290: 2ba0 b93d 0034 8abe db3e 1cbe 62a8 c1bd
000002a0: b819 fdbd 57c4 873d ae40 e439 ab06 493d
000002b0: 92aa 6fbd 3f2e debd 57fc eb3d ccf5 e73d
000002c0: 8df8 ec3d 4ac3 dfbd c232 60bc fec5 a23d
000002d0: 8573 013e 63a1 0abe 40b2 46be 60a6 5cbe
000002e0: 036b 053d 7368 603e 0d27 9bbd c352 2fbe
000002f0: 2cb1 debd b675 f8bc e179 383d 4d55 17bd
00000300: 4cc9 1b3d 468a 723d 6dba 28bb af28 2c3d
00000310: 3896 9a3c 8ac0 a63c dff5 e8bc c736 da3d
00000320: 06e8 773d fd63 1f3e 98b1 d53c dc40 92bd
00000330: d212 ea3d ff2c 0d3e 27b5 883d 78eb c03d
00000340: 8c4b d53c 3dfc c4bc 868e ecbd f84c 82bb
00000350: a577 a9bd dfaf 98bd ac7d 21bd 53a7 f23d
00000360: aea7 263e 617f 193e 72ba 98bd 4701 183e
00000370: f69e 913d b1f4 9dbd 0a60 303d af58 c33c
00000380: d7bd 133e 85aa 7ebc 5553 503c 3675 8ebd
00000390: 0791 8ebc 2087 943d 886d 223e 8e12 333e
000003a0: 03fc 223e 7d23 22bd 8438 bbbc 98b1 90bd
000003b0: f769 0f3d d929 a33d 25f0 6e3e 00fa 0b3e
000003c0: a8f5 213d 6054 8e3d e143 36bd 7984 213d
000003d0: 3d77 1b3d c478 463e 7ef1 31bd fa63 cd3b
000003e0: 86da 8fbd 2132 95bd 7bcb 513c e9e3 07bd
000003f0: db71 dc3d 1950 af3d f2d6 393d 7e7c 98bd

layer2.0.bias f4 [34]
0.026266469 0.03056472 0.026659107 0.022877531 0.02156377 0.019704677 -0.016006218 -0.026245525
-0.021226058 -0.018140735 0.021694174 0.011416491 0.049178164 -0.023263296 0.018414414 -0.013636592
0.025028229 -0.013951744 -0.020643182 -0.013090557 -0.023584396 0.023725182 -0.021044109 0.028609524
0.032787785 0.03978084 -0.016383378 0.024663597 0.018167956 0.022017566 -0.01888899 -0.017177908
-0.016081246 0.033037003
00000000: c72c d73c dd62 fa3c 3364 da3c a969 bb3c
00000010: 81a6 b03c b46b a13c 791f 83bc db00 d7bc
00000020: 45e2 adbc e19b 94bc fbb7 b13c 3c0c 3b3c
00000030: 0b6f 493d ab92 bebc d3d9 963c 036c 5fbc
00000040: 0008 cd3c db95 64bc e41b a9bc c779 56bc
00000050: 1034 c1bc 505b c23c b264 acbc 855e ea3c
00000060: 7c4c 063d 3cf1 223d 6f36 86bc 500b ca3c
00000070: f7d4 943c 2f5e b43c 15bd 9abc afb8 8cbc
00000080: d1bc 83bc cf51 073d

dense.0.0.weight f4 [160, 28]
0.0033439482 -0.082073815 -0.022034258 -0.07654645 0.44315472 0.35019138 0.069913276 0.292572
-0.12397549 0.013250865 -0.020157702 -0.13185142 0.039153434 -0.02723917 -0.18271609 0.46416113
0.054160737 0.005606421 -0.21707737 0.25417358 0.23700252 0.6391545 -0.17735967 0.014106664
0.25199395 -0.14123324 0.07754239 0.27936313 0.12917335 0.01606799 0.2447368 0.30774364
0.31822473 -0.061151378 -0.0762559 0.19936813 0.21071851 0.40806156 -0.18104635 0.15906395
0.25267988 -0.2376866 0.09006552 0.5283202 0.09571984 0.38194743 0.0048180413 -0.24008825
0.23379661 0.44876984 -0.11813866 -0.22308208 0.106204085 -0.022313647 -0.053716592 -0.09472148
-0.03264087 0.34551194 0.20067789 0.079349086 0.04182112 -0.34757236 0.13315941 -0.56036943
0.22647691 0.23169774 -0.31750786 -0.112535894 -0.43555528 -0.25633916 0.11000772 -0.22005953
-0.052508697 -0.031567395 0.13056418 -0.043016903 -0.10933739 -0.11902979 -0.36147177 0.0835615
0.06378618 0.03712751 0.21582331 -0.26793194 -0.2360202 0.12777969 0.0020513807 0.077663794
0.1833659 -0.43515792 0.056128252 0.0042669955 -0.044774294 -0.22166923 0.19038656 -0.23514889
0.27537662 0.12935321 0.11547949 -0.19126077 -0.22611552 -0.16974008 -0.17832877 0.0798031
0.22352713 -0.56489223 0.009158797 -0.043868452 0.5488117 -0.050879728 0.24757409 -0.21986908
0.28204829 -0.34653607 0.16155061 -0.21147399 0.2853633 -0.06678685 0.2337468 -0.34675366
-0.079333976 0.013440292 -0.27770865 0.70907104 0.043601558 0.108169004 -0.32284337 -0.03346103
-0.064450875 0.033935968 -0.08992745 -0.4772298 0.33319527 0.0145597225 -0.16155726 0.08650843
0.08347669 0.1721957 -0.1721752 0.129279 0.32762587 -0.11194326 0.0915415 0.15470116
0.35883194 -0.27284122 0.057291303 0.3280489 -0.66181844 -0.133705 -0.034123663 -0.11851154
0.13356216 -0.19698864 0.14936392 0.23961785 -0.015404089 -0.18711318 0.17670168 0.074785076
-0.34151182 0.13591966 -0.009329361 0.05622337 0.049290992 0.40637368 0.14749114 0.19683628
-0.06288725 -0.05406395 -0.31125888 0.08600186 -0.060922652 0.016822003 0.19781928 0.16950741
0.45630425 0.27926308 0.23456775 -0.37860665 0.46748275 0.4860473 -0.4094857 -0.031831317
0.39468715 0.04799569 0.30204746 -0.14407656 -0.19363973 -0.4588072 -0.268467 -0.26445922
-0.10021037 -0.367733 -0.2744656 0.1701794 0.4824308 -0.36020315 0.5431482 0.46336916
-0.07432328 -0.44057372 0.4861482 -0.067082904 0.022842802 -0.45398918 0.25071415 -0.1524028
0.07106938 0.09936896 -0.112396285 0.21028674 -0.35302544 0.049807496 0.22866778 -0.60676146
0.50821906 -0.5382113 -0.3710893 -0.06728513 -0.46208647 0.21649407 0.012742392 -0.10527029
0.20358022 -0.1525926 -0.05031559 0.3479031 0.2513768 0.3544062 -0.28016376 -0.10130267
0.33490998 0.27158722 -0.10138969 -0.59053016 -0.15492629 -0.16217409 0.10874653 -0.31627643
-0.0149348015 0.14993483 -0.17590067 0.16401938 0.16450538 -0.123096265 0.18713762 0.19589089
-0.2606977 0.043390557 0.11382747 0.15210855 0.016320035 0.06219985 0.22727011 0.13590084
00000000: 2426 5b3b 5116 a8bd 3081 b4bc 63c4 9cbd
00000010: 2de5 e23e 494c b33e b12e 8f3d ffcb 953e
00000020: dde6 fdbd 281a 593c c421 a5bc 0f04 07be
00000030: 5a5f 203d ae24 dfbc ed19 3bbe 87a6 ed3e
00000040: a6d7 5d3d 11b6 b73b 8849 5ebe 0a23 823e
00000050: cab0 723e a19f 233f c69d 35be a31f 673c
00000060: 5a05 813e 729f 10be 8bce 9e3d af08 8f3e
00000070: 0546 043e 04a1 833c 499c 7a3e 9390 9d3e
00000080: 5aee a23e de79 7abd 0e2c 9cbd 2927 4c3e
00000090: 98c6 573e 72ed d03e 3764 39be a9e1 223e
000000a0: 425f 813e 1e64 73be 4574 b83d fe3f 073f
000000b0: c308 c43d 9d8e c33e a9e0 9d3b b2d9 75be
000000c0: 6168 6f3e 29c5 e53e aff2 f1bd a16f 64be
000000d0: 8781 d93d 1ccb b6bc ee05 5cbd 56fd c1bd
000000e0: 6fb2 05bd f1e6 b03e 817e 4d3e c681 a23d
000000f0: 9f4c 2b3d 01f5 b1be f15a 083e 5f74 0fbf
00000100: 90e9 673e 2c42 6d3e 6490 a2be 3879 e6bd
00000110: 1a01 dfbe e33e 83be ba4b e13d 4957 61be
00000120: 5c13 57bd d04c 01bd 9eb2 053e 7e32 30bd
00000130: 48ec dfbd e4c5 f3bd d412 b9be 4b22 ab3d
00000140: 54a2 823d 0413 183d c900 5d3e 602e 89be
00000150: 48af 71be aed8 023e 7570 063b 320e 9f3d
00000160: 45c4 3b3e 05cd debe bde6 653d 27d2 8b3b
00000170: 4065 37bd 42fd 62be b2f4 423e dfca 70be
00000180: 2afe 8c3e 2b75 043e 8380 ec3d ddd9 43be
00000190: d48a 67be 58d0 2dbe d19b 36be cf6f a33d
000001a0: 4ce4 643e c79c 10bf c70e 163c 68af 33bd
000001b0: ec7e 0c3f 4367 50bd 1084 7d3e 5c25 61be
000001c0: a268 903e 2d6d b1be 866d 253e a38c 58be
000001d0: 231b 923e 8bc7 88bd 525b 6f3e b289 b1be
000001e0: da79 a2bd ac34 5c3c d42f 8ebe ae85 353f
000001f0: 8c97 323d b687 dd3d ba4b a5be 6f0e 09bd
00000200: d2fe 83bd 7100 0b3d e22b b8bd 7757 f4be
00000210: 9298 aa3e e78b 6e3c 446f 25be 552b b13d
00000220: d4f5 aa3d 1254 303e b24e 30be b761 043e
00000230: 94be a73e 8242 e5bd 1c7a bb3d fb69 1e3e
00000240: d2b8 b73e d8b1 8bbe 49aa 6a3d 07f6 a73e
00000250: ef6c 29bf f7e9 08be 41c5 0bbd 2eb6 f2bd
00000260: 85c4 083e 64b7 49be dbf2 183e 625e 753e
00000270: 6f61 7cbc 999a 3fbe 49f1 343e eb28 993d
00000280: a3da aebe 862e 0b3e 2dda 18bc 7a4a 663d
00000290: 5ae5 493d 3610 d03e eb07 173e 738f 493e
000002a0: 08cb 80bd 2972 5dbd 535d 9fbe be21 b03d
000002b0: 088a 79bd 4cce 893c 2391 4a3e 5a93 2d3e
000002c0: b6a0 e93e 92fb 8e3e 8732 703e bbd8 c1be
000002d0: e659 ef3e 31db f83e 1ca8 d1be 8e61 02bd
000002e0: 6f14 ca3e 2197 443d f7a5 9a3e ce88 13be
000002f0: 7e49 46be c7e8 eabe 8274 89be 3367 87be
00000300: 183b cdbd 8047 bcbe c186 8cbe 8243 2e3e
00000310: 2b01 f73e 8c6c b8be c30b 0b3f b93e ed3e
00000320: ce36 98bd e192 e1be 6be8 f83e c362 89bd
00000330: d420 bb3c 4571 e8be 9b5d 803e 7b0f 1cbe
00000340: d38c 913d f481 cb3d 0630 e6bd 6855 573e
00000350: c0bf b4be f202 4c3d e327 6a3e b854 1bbf
00000360: a51a 023f 37c8 09bf 6bff bdbe c9cc 89bd
00000370: 9996 ecbe 9fb0 5d3e 77c5 503c f397 d7bd
00000380: 5577 503e 3c41 1cbe b817 4ebd 5b20 b23e
00000390: 76b4 803e bb74 b53e a071 8fbe c677 cfbd
000003a0: 5279 ab3e 7b0d 8b3e 66a5 cfbd fc2c 17bf
000003b0: ffa4 1ebe f710 26be 80b6 de3d fcee a1be
000003c0: 19b1 74bc 8488 193e 4e1f 34be b2f4 273e
000003d0: 1974 283e e519 fcbd 01a1 3f3e 9f97 483e
000003e0: 2b7a 85be 4cba 313d 601e e93d 58c2 1b3e
000003f0: 98b1 853c 45c5 7e3d 7fb9 683e 9729 0b3e

dense.0.0.bias f4 [160]
-0.01430368 0.017912889 -0.011974024 -0.012208363 0.019724641 0.0057764305 -0.025878813 0.02473601
-0.02116998 0.026679974 0.018686978 0.026982324 -0.014165255 -0.024896394 0.011459596 -0.01735832
-0.019524002 0.0053621074 -0.016803866 0.033312984 -0.011262928 -0.013396453 -0.012453702 -0.025273485
-0.010742622 0.053855516 -0.016191399 -0.0045982604 -0.019893387 -0.027079053 0.020169128 -0.021463484
-0.018681774 0.017667657 0.021128312 -0.017316774 0.018538471 -0.027659569 0.023890061 -0.013911758
-0.02675457 -0.008534496 -0.010733919 -0.024773495 0.002389964 0.020129606 0.025161872 -0.021177864
-0.02986075 -0.022790631 0.018593615 -0.0007820514 -0.020572482 0.018321862 -0.016895754 0.023897344
0.023449274 0.010344323 0.026213784 -0.021176456 -0.00027395826 -0.008357092 -0.022934588 -0.014296514
0.0013486218 0.020917961 0.020895762 0.013688595 0.0109314695 0.025645416 -0.008482672 -0.020531125
-0.014124526 -0.020189414 -0.014053088 -0.021384822 -0.02418931 0.041816853 -0.02076318 -0.019821126
-0.030522222 -0.0006639577 0.021554373 -0.023158649 -0.021643471 0.018540107 -0.0066012763 0.010752408
-0.004486148 -0.017256444 -0.018873254 0.020208059 -0.010924137 -0.016316053 0.030922905 -0.016546775
0.044737693 0.0045542642 0.025225114 0.028657822 0.007494427 -0.023118509 0.011436564 -0.01754261
0.02736935 0.03138167 0.014340002 -0.023181096 0.015755296 0.018469894 0.0015921517 0.018581795
-0.021702714 -0.025944117 -0.024300119 -0.019946009 -0.023593387 0.026170036 0.012190551 -0.02105329
-0.023085043 0.018398669 -0.018934336 -0.02576986 0.029156098 0.004396964 -0.02071089 -0.014551992
-0.0228902 0.029129757 -0.020201473 -0.01843091 0.01729783 -0.012349926 0.014396625 -0.0147337895
0.019629268 -0.013444239 -0.028290862 0.016146202 -0.018324513 -0.022844566 0.02142669 -0.029210087
-0.017952358 0.00020048094 0.024929127 0.020492764 0.0017908349 -0.020199569 0.01256567 -0.027150318
-0.022430807 -0.02653781 -0.02060269 0.00036704808 -0.0123700155 0.015130229 -0.017382566 0.02943327
00000000: fb59 6abc 0dbe 923c b22e 44bc 9605 48bc
00000010: 9295 a13c 3648 bd3b ceff d3bc 2ca3 ca3c
00000020: aa6c adbc f68f da3c 6f15 993c 090a dd3c
00000030: 6315 68bc 86f3 cbbc 08c1 3b3c 0933 8ebc
00000040: cdf0 9fbc 9eb4 af3b 43a8 89bc 3273 083d
00000050: 2588 38bc cc7c 5bbc 9d0a 4cbc 570a cfbc
00000060: d301 30bc 9a97 5c3d d3a3 84bc 01ad 96bb
00000070: 75f7 a2bc e4d4 ddbc ba39 a53c 30d4 afbc
00000080: 850a 99bc c3bb 903c 4815 ad3c e8db 8dbc
00000090: fedd 973c 5296 e2bc 17b5 c33c 24ee 63bc
000000a0: 662c dbbc 45d4 0bbc 52dd 2fbc c9f1 cabc
000000b0: f1a0 1c3b d8e6 a43c 4520 ce3c 337d adbc
000000c0: 889e f4bc 6bb3 babc a351 983c 9502 4dba
000000d0: 9f87 a8bc bb17 963c f768 8abc 5dc4 c33c
000000e0: b118 c03c 3c7b 293c 4abe d63c 3f7a adbc
000000f0: 0ea2 8fb9 2fec 08bc 51e1 bbbc ed3b 6abc
00000100: 3dc4 b03a 255c ab3c 972d ab3c 2146 603c
00000110: e819 333c 5616 d23c e8fa 0abc e430 a8bc
00000120: 8e6a 67bc 4564 a5bc ec3e 66bc 392f afbc
00000130: a928 c6bc 2648 2b3d 8b17 aabc ea5f a2bc
00000140: bd09 fabc 720d 2eba cc92 b03c 35b7 bdbc
00000150: a64d b1bc 6ce1 973c 854f d8bb de2a 303c
00000160: 8900 93bb 635d 8dbc 159c 9abc 5f8b a53c
00000170: 27fb 32bc 3ea9 85bc 0852 fd3c 1a8d 87bc
00000180: df3e 373d f03b 953b e6a4 ce3c cfc3 ea3c
00000190: cf93 f53b 0763 bdbc 6d60 3b3c 85b5 8fbc
000001a0: b035 e03c 118a 003d 54f2 6a3c 48e6 bdbc
000001b0: 4011 813c 2d4e 973c bfaf d03a d938 983c
000001c0: e4c9 b1bc c288 d4bc 0b11 c7bc d065 a3bc
000001d0: eb46 c1bc 8b62 d63c e0ba 473c f377 acbc
000001e0: d81c bdbc ceb8 963c 2e1c 9bbc 501b d3bc
000001f0: c5d8 ee3c 6814 903b e2a9 a9bc 7a6b 6ebc
00000200: 3b84 bbbc 87a1 ee3c 8f7d a5bc 6bfc 96bc
00000210: 2eb4 8d3c 5857 4abc d2df 6b3c fe65 71bc
00000220: 8fcd a03c 3a45 5cbc 3dc2 e7bc 0a45 843c
00000230: 4a1d 96bc 8724 bbbc 0787 af3c fe49 efbc
00000240: d310 93bc 3138 5239 2b38 cc3c 71e0 a73c
00000250: 73ba ea3a 9179 a5bc 3de0 4d3c 586a debc
00000260: d0c0 b7bc d265 d9bc f9c6 a8bc 5c70 c039
00000270: 9bab 4abc c8e4 773c e265 8ebc 0b1e f13c

dense.1.0.weight f4 [34, 160]
-0.010087669 0.09186162 0.036856733 0.08594139 0.025321461 0.0637911 -0.06398111 0.11829817
0.007045989 0.16076598 0.02634394 0.0025944249 -0.0006133927 -0.041857503 0.003243397 -0.090416506
0.17772958 0.100678496 -0.08278261 0.21066387 -0.080661036 0.0021712186 0.15134542 -0.017628774
-0.14973152 0.1438272 0.070174955 0.24524231 -0.038104247 0.18924129 0.26996294 0.1267255
-0.15458483 0.17152019 0.07909366 -0.08754588 0.13252777 0.015032825 -0.18171062 -0.03639851
-0.030308265 -0.06684571 -0.13885427 -0.054396775 -0.021702658 -0.15068194 0.011178331 -0.11589038
0.16490607 -0.2309467 -0.14668845 -0.047163285 -0.06359435 0.19616953 0.038760692 0.019506173
0.27954498 -0.08032452 -0.14669555 0.082836166 0.114596 -0.046028003 0.06839906 0.12129311
0.19633658 0.17468189 -0.03686695 0.04622837 0.03619769 -0.099705294 0.1361168 -0.16367579
-0.031866472 -0.004011976 -0.09112753 -0.09172953 -0.030630315 -0.0702984 0.011230787 0.05782036
-0.1004394 0.18078189 -0.04281239 -0.004010973 0.1254126 0.0317751 -0.043188453 -0.0004413523
0.14287685 0.13684523 0.0068248543 0.17613488 -0.024235398 -0.011045365 -0.18586095 -0.050640494
0.10079998 -0.123199046 0.09608995 -0.03407484 0.12009754 0.031874195 -0.003176863 0.36049378
0.055496056 0.16411227 0.03613296 -0.1759658 -0.013899645 0.14162357 -0.10295405 0.11586452
0.026223443 -0.06836951 -0.015948594 0.1648873 -0.08024682 0.039762717 0.23773284 -0.15919359
0.004411181 0.22509702 0.071013905 0.02228279 0.11542936 0.03400762 0.13160196 0.0106802005
-0.028952366 -0.121304974 -0.0285323 -0.08125498 0.07276396 0.080851026 -0.07457429 -0.16567557
-0.101662 0.045940775 0.23666658 0.0708597 -0.1531486 -0.00815227 0.029307757 -0.036572658
0.11113592 -0.04650883 0.012333281 0.023290643 0.06666234 0.1514038 0.1673306 0.08868587
0.16037181 0.053932305 0.026684452 0.0634948 -0.09906308 0.08092481 -0.1709781 -0.104102045
0.022891168 0.026478948 0.12799096 -0.122748986 0.09063753 -0.26992798 -0.15258352 -0.094559446
-0.12358421 0.06629246 0.0004353574 0.049078625 -0.058512278 -0.108486645 0.115227394 0.11326179
0.11570845 -0.1092592 -0.013683977 0.0794792 0.12641723 -0.13538127 -0.19403934 -0.21547842
0.032572757 0.21914844 -0.07575808 -0.17121415 -0.108736366 -0.030329566 0.045038108 -0.036946584
0.03803377 0.0592139 -0.0025745884 0.042030986 0.018870458 0.020355482 -0.028437553 0.10654979
0.06052401 0.15565486 0.02608566 -0.07141277 0.11429371 0.13786696 0.06675177 0.09419912
0.026037 -0.024046058 -0.11550622 -0.0039764605 -0.082747735 -0.0745542 -0.03942649 0.11848321
0.16274902 0.14989997 -0.074574366 0.14844237 0.071103975 -0.07712687 0.04306034 0.023845999
0.14427887 -0.015543585 0.01271518 -0.0695595 -0.017403139 0.072523355 0.15862095 0.17487547
0.15916447 -0.039584626 -0.022854097 -0.07065123 0.035013165 0.07966966 0.23333795 0.13669586
0.039540917 0.06949687 -0.044498328 0.039432976 0.03795551 0.19382006 -0.043443196 0.0062680217
-0.07024102 -0.07284952 0.012804861 -0.033176336 0.10763904 0.08560199 0.045371003 -0.0744562
00000000: c046 25bc f221 bc3d 16f7 163d 0a02 b03d
00000010: f46e cf3c e9a4 823d 8708 83bd 5046 f23d
00000020: 0ae2 e63b d69f 243e 3fcf d73c 3a07 2a3b
00000030: 16cc 20ba c672 2bbd 2c8f 543b 4a2c b9bd
00000040: befe 353e 8730 ce3d ee89 a9bd 45b8 573e
00000050: 9d31 a5bd 014b 0e3b 4bfa 1a3e 386a 90bc
00000060: 3853 19be 7047 133e e3b7 8f3d cd20 7b3e
00000070: 3313 1cbd 78c8 413e 9538 8a3e 54c4 013e
00000080: 7c4b 1ebe fda2 2f3e dbfb a13d 414b b3bd
00000090: 5cb5 073e 3d4c 763c 5912 3abe 9b16 15bd
000000a0: 0a49 f8bc 67e6 88bd d02f 0ebe 27cf 5ebd
000000b0: c6c9 b1bc 5e4c 1abe 5225 373c f057 edbd
000000c0: 23dd 283e 4b7d 6cbe 7f35 16be 4a2e 41bd
000000d0: c13d 82bd aae0 483e 88c3 1e3d 69cb 9f3c
000000e0: 8520 8f3e 2f81 a4bd 5c37 16be 02a6 a93d
000000f0: 4fb1 ea3d dc87 3cbd ce14 8c3d 8668 f83d
00000100: 750c 493e cfdf 323e cd01 17bd f659 3d3d
00000110: 0744 143d 4a32 ccbd 3462 0b3e a09a 27be
00000120: 6b86 02bd e576 83bb 12a1 babd b1dc bbbd
00000130: 6dec fabc 9cf8 8fbd 5601 383c 0bd5 6c3d
00000140: 2cb3 cdbd e31e 393e 0b5c 2fbd 7b6e 83bb
00000150: 296c 003e 9b26 023d 60e6 30bd 4e65 e7b9
00000160: 4f4e 123e 2821 0c3e 07a3 df3b b45c 343e
00000170: 5089 c6bc 9ef7 34bc 5552 3ebe 686c 4fbd
00000180: 3870 ce3d c84f fcbd cfca c43d 0f92 0bbd
00000190: b3f5 f53d 848e 023d eb32 50bb a492 b83e
000001a0: d54f 633d 0c0d 283e 2800 143d 6130 34be
000001b0: 56bb 63bc c505 113e 93d9 d2bd 614a ed3d
000001c0: 8cd2 d63c 5005 8cbd a0a6 82bc 37d8 283e
000001d0: 7258 a4bd 3bde 223d 3d70 733e a503 23be
000001e0: ab8b 903b d57f 663e bd6f 913d 668a b63c
000001f0: 3a66 ec3d 934b 0b3d aac2 063e 02fc 2e3c
00000200: 832d edbc be6e f8bd 92bc e9bc 0369 a6bd
00000210: 4505 953d 3995 a53d 68ba 98bd dba6 29be
00000220: 2b34 d0bd 652c 3c3d b958 723e e41e 913d
00000230: fdd2 1cbe 1991 05bc d216 f03c 36cd 15bd
00000240: 3b9b e33d 0b80 3ebd 8811 4a3c 05cc be3c
00000250: 4486 883d 9909 1b3e b658 2b3e f0a0 b53d
00000260: 8238 243e 1fe8 5c3d 5a99 da3c 9009 823d
00000270: 96e1 cabd e8bb a53d e214 2fbe 7433 d5bd
00000280: 4286 bb3c 61ea d83c 1010 033e d263 fbbd
00000290: 2ba0 b93d 0034 8abe db3e 1cbe 62a8 c1bd
000002a0: b819 fdbd 57c4 873d ae40 e439 ab06 493d
000002b0: 92aa 6fbd 3f2e debd 57fc eb3d ccf5 e73d
000002c0: 8df8 ec3d 4ac3 dfbd c232 60bc fec5 a23d
000002d0: 8573 013e 63a1 0abe 40b2 46be 60a6 5cbe
000002e0: 036b 053d 7368 603e 0d27 9bbd c352 2fbe
000002f0: 2cb1 debd b675 f8bc e179 383d 4d55 17bd
00000300: 4cc9 1b3d 468a 723d 6dba 28bb af28 2c3d
00000310: 3896 9a3c 8ac0 a63c dff5 e8bc c736 da3d
00000320: 06e8 773d fd63 1f3e 98b1 d53c dc40 92bd
00000330: d212 ea3d ff2c 0d3e 27b5 883d 78eb c03d
00000340: 8c4b d53c 3dfc c4bc 868e ecbd f84c 82bb
00000350: a577 a9bd dfaf 98bd ac7d 21bd 53a7 f23d
00000360: aea7 263e 617f 193e 72ba 98bd 4701 183e
00000370: f69e 913d b1f4 9dbd 0a60 303d af58 c33c
00000380: d7bd 133e 85aa 7ebc 5553 503c 3675 8ebd
00000390: 0791 8ebc 2087 943d 886d 223e 8e12 333e
000003a0: 03fc 223e 7d23 22bd 8438 bbbc 98b1 90bd
000003b0: f769 0f3d d929 a33d 25f0 6e3e 00fa 0b3e
000003c0: a8f5 213d 6054 8e3d e143 36bd 7984 213d
000003d0: 3d77 1b3d c478 463e 7ef1 31bd fa63 cd3b
000003e0: 86da 8fbd 2132 95bd 7bcb 513c e9e3 07bd
000003f0: db71 dc3d 1950 af3d f2d6 393d 7e7c 98bd

dense.1.0.bias f4 [34]
0.026266469 0.03056472 0.026659107 0.022877531 0.02156377 0.019704677 -0.016006218 -0.026245525
-0.021226058 -0.018140735 0.021694174 0.011416491 0.049178164 -0.023263296 0.018414414 -0.013636592
0.025028229 -0.013951744 -0.020643182 -0.013090557 -0.023584396 0.023725182 -0.021044109 0.028609524
0.032787785 0.03978084 -0.016383378 0.024663597 0.018167956 0.022017566 -0.01888899 -0.017177908
-0.016081246 0.033037003
00000000: c72c d73c dd62 fa3c 3364 da3c a969 bb3c
00000010: 81a6 b03c b46b a13c 791f 83bc db00 d7bc
00000020: 45e2 adbc e19b 94bc fbb7 b13c 3c0c 3b3c
00000030: 0b6f 493d ab92 bebc d3d9 963c 036c 5fbc
00000040: 0008 cd3c db95 64bc e41b a9bc c779 56bc
00000050: 1034 c1bc 505b c23c b264 acbc 855e ea3c
00000060: 7c4c 063d 3cf1 223d 6f36 86bc 500b ca3c
00000070: f7d4 943c 2f5e b43c 15bd 9abc afb8 8cbc
00000080: d1bc 83bc cf51 073d

output.0.weight f4 [1, 34]
-0.09472184 -0.1394408 -0.06884309 -0.3373204 -0.15705633 -0.33538818 0.023587024 0.23132394
0.13605921 0.16973388 -0.22559336 -0.09390188 -0.04577604 0.36512506 -0.27840218 0.10803367
-0.09048284 0.4021473 0.21175732 0.004623435 0.40942565 -0.18081655 0.35952345 -0.050242364
-0.23738645 -0.10731778 0.30430308 -0.25736693 -0.31364423 -0.5191525 0.3427943 0.19213676
0.34595326 -0.09571629
00000000: 86fd c1bd 92c9 0ebe 9bfd 8cbd 42b5 acbe
00000010: 60d3 20be 00b8 abbe 9339 c13c 2fe0 6c3e
00000020: 1b53 0b3e b8ce 2d3e f201 67be a14f c0bd
00000030: a87f 3bbd acf1 ba3e bb8a 8ebe c240 dd3d
00000040: 114f b9bd 40e6 cd3e e9d6 583e 2f80 973b
00000050: 3da0 d13e f927 39be 7513 b83e f0ca 4dbd
00000060: 6f15 73be 6dc9 dbbd 9dcd 9b3e 99c5 83be
00000070: fa95 a0be 2ee7 04bf bc82 af3e 80bf 443e
00000080: c920 b13e e706 c4bd
